model_saved.pt (torch, 308399 bytes, 8 tensors)

shared_weight f4 [84, 84]
000000 51 6e fe bd 59 e5 a0 3f a2 37 f9 3e 81 dc 84 be
       -0.12423385 1.2569991 0.48675257 -0.2594948
000010 83 ee 83 bf f0 da 77 3f 4e 4b c0 bf d8 e7 a9 bf
       -1.0307163 0.9681845 -1.5022981 -1.3273878
000020 cf d4 df 3f 96 ee 20 40 81 3f 82 3f f5 6c 2c 3f
       1.7486819 2.5145621 1.017563 0.67353755
000030 80 f2 9b 3d 2a e1 58 bd 33 77 f9 bf 93 ac a0 bf
       0.076146126 -0.05294911 -1.9489502 -1.2552665
000040 f8 2b 34 be 3e 11 34 3f 49 cc 23 3c 76 fc 9e bf
       -0.17594898 0.7033881 0.009997436 -1.2420795
000050 a9 aa 87 bf 9f e8 24 be 53 54 97 bf 66 8e fa be
       -1.0598956 -0.16104363 -1.1822609 -0.48936766
000060 50 87 82 bf 6a d7 16 bf 01 00 9e be 4c a3 a8 3b
       -1.0197544 -0.58922446 -0.30859378 0.0051464196
000070 c1 2b 3f 3d af 46 ec 3e ec de 84 3e 50 0c dd bf
       0.046672586 0.46147677 0.25951326 -1.7269382
000080 00 b0 cc 3c 5a 91 d2 3f e4 12 3c bf 57 16 b8 be
       0.024986267 1.6450608 -0.73466325 -0.35954544
000090 b7 3d 90 bf 52 c8 e4 bf 60 cb cf be e9 74 3e 3d
       -1.1268834 -1.7873633 -0.4058485 0.046498213
0000a0 67 72 e6 bf 77 3c 7e be 3e 09 0f bf bb 18 87 3f
       -1.8003663 -0.24827753 -0.5587348 1.0554422
0000b0 bb 35 45 3e 0b 67 f1 3f a4 f2 85 bf 0b 37 82 bf
       0.19258778 1.8859571 -1.0464673 -1.0173048
0000c0 75 b2 8d 3f ba b5 b9 be 57 80 ce 3f 0d f1 06 3f
       1.1070086 -0.3627146 1.6132916 0.52711564
0000d0 e7 a1 93 3f ba ac ad 3f 47 d3 6c be 72 a7 a4 be
       1.1533784 1.3568337 -0.23127471 -0.32159
0000e0 43 18 91 bf 7c 69 0c 3f da e0 ac be 56 49 47 3e
       -1.1335529 0.54848456 -0.33765298 0.19461569
0000f0 0c 61 5d 3f f9 49 11 3e b6 63 36 3f bb 09 4e 3f
       0.86476207 0.14188375 0.71245897 0.804836
000100 48 7f 43 40 65 0a 33 3f e4 e4 0d 40 31 d4 a4 be
       3.0546436 0.69937736 2.2170954 -0.3219314
000110 e6 61 a5 3f d2 2e c2 3f 04 ff 42 bf 92 d8 de bf
       1.2920501 1.5170538 -0.7617037 -1.7409842
000120 38 85 c6 bf 4a 29 71 bf 5b 1c 01 bf 88 d2 ed bf
       -1.5509405 -0.9420363 -0.5043389 -1.8579874
000130 ec 0b a3 bf bd bf b0 bd 77 64 ba bf 1e c0 8d 3f
       -1.2738013 -0.08630321 -1.456191 1.1074255
000140 94 ce d1 be 29 71 dd 3f 8d 7f 0e c0 d4 e1 88 bf
       -0.4097792 1.7300159 -2.226535 -1.0693917
000150 63 d5 02 c0 95 91 99 be 5f e9 83 bf 3d 03 10 bf
       -2.044274 -0.29993883 -1.0305594 -0.5625494
000160 bc 3e 92 3f 5f 3d ce 3e eb 77 0d bf 0e 9d c0 bb
       1.1425395 0.40281197 -0.55261105 -0.0058780974
000170 6b a4 a2 bd 32 4c 54 3f 4e 07 bf 3f dc 0a 56 3f
       -0.079415165 0.82928765 1.4924104 0.8361032
000180 62 ac df 3f 76 16 0d bf f1 8e 89 3e 2d 33 05 bf
       1.7474482 -0.551124 0.26866868 -0.52031213
000190 c9 64 4c 3f 14 f1 ac bf 0a 1e 22 bf 33 3a 3f 3f
       0.79841286 -1.3511071 -0.63327086 0.7469818
0001a0 5b 62 02 3f 3c 7d 1a bf 27 cb e5 be 9c 69 d7 bf
       0.5093133 -0.6034734 -0.44881555 -1.6829104
0001b0 88 ac f9 be ff 50 57 bf ef ef 24 c0 22 db 0e 3f
       -0.48764443 -0.84107965 -2.5771444 0.5580312
0001c0 5d ea 93 bf 1a b8 8c 3f 04 8d b9 3d b4 6b 6e be
       -1.1555897 1.0993683 0.090601 -0.23283273
0001d0 c2 71 00 3f 7f f8 f2 3f e8 16 eb 3e 71 b3 48 bf
       0.5017358 1.8982085 0.45915914 -0.78398806
0001e0 e4 63 95 3f b6 7a c9 bf 96 1f 47 be 45 dd 88 3d
       1.1671109 -1.5740573 -0.19445643 0.06682829
0001f0 8a bd bb 3f 05 d2 08 bf b7 45 95 3e ec 6a 50 bf
       1.4667218 -0.53445464 0.2915475 -0.8141315
000200 6a 02 84 3f 76 b9 51 3f 87 28 52 3f 5c 5c 80 3f
       1.0313237 0.81923616 0.8209309 1.0028186
000210 74 4c 97 be c8 8a ee 3e 22 16 a0 bf af 7d a2 3e
       -0.29550517 0.46590257 -1.2506754 0.31736514
000220 f8 f5 63 bf b3 bb 3d bf ae 0f 1b bf 7c 94 06 3e
       -0.89047194 -0.7411453 -0.605708 0.1314258
000230 8e 56 8a bf e3 5a 02 bf a0 71 9f bd 13 7e 02 40
       -1.0807664 -0.5091993 -0.07785344 2.038945
000240 db 30 c7 be 53 b8 71 3e 05 46 09 bf cf 18 17 40
       -0.3890446 0.2360547 -0.53622466 2.3608892
000250 c8 3d 8c be 6e 11 46 3f 4c d2 ca be fe ac 9a bf
       -0.27390885 0.77370346 -0.3961357 -1.2084043
000260 17 da 7f 3f c5 d9 e8 3e 15 8d 06 c0 6f 5e b3 bd
       0.99942154 0.45478645 -2.102361 -0.08758246
000270 e1 bd b0 bd a1 f4 6d 3f f8 a9 d7 3f 39 25 e6 3e
       -0.086299665 0.929514 1.6848745 0.44950274
000280 07 95 79 3f 25 2a 70 bd 12 fe ed 3f 1a 4e 1e c0
       0.9749302 -0.058633942 1.8593161 -2.473517
000290 20 94 8a 3e 9d 73 92 bf ef 24 1b 3e a8 78 94 be
       0.27066135 -1.1441532 0.15150808 -0.28998303
0002a0 cb bd e1 be b3 93 8c bf 2e ef 10 be a6 db ad 3e
       -0.44090113 -1.0982574 -0.1415374 0.3395664
0002b0 59 a5 24 be d2 75 d1 bf 4d b5 fc be df a6 95 3e
       -0.160787 -1.6364081 -0.49357072 0.29228875
0002c0 73 cf e7 3d 80 17 5a 3f b8 b3 33 bf bf 25 07 be
       0.11318865 0.8519211 -0.70196104 -0.13197993
0002d0 6a 94 a6 3f 4a d4 18 40 59 ed 1d be 7d c2 5a 3f
       1.3014042 2.387957 -0.15422572 0.85453016
0002e0 ae dc 00 bf 52 7f b1 3e bc e9 05 c0 1e b7 d0 3e
       -0.5033673 0.3466745 -2.092391 0.40764707
0002f0 86 9e eb bf cf 05 bf bf 09 50 f1 be d1 5b a1 3e
       -1.8407753 -1.4923648 -0.47131374 0.31515363
000300 f5 81 b3 3f b8 9d 59 bc 1b 90 22 bf 98 d0 c7 be
       1.4024035 -0.013282232 -0.6350114 -0.39026332
000310 f6 24 91 3e 98 04 2e 3f ac ea 10 bd ef 4a 76 3f
       0.2834851 0.6797576 -0.03538005 0.9620809
000320 ba 0e 0e 3f 90 f3 7d 3f 13 41 81 3f 64 40 4f 3e
       0.5549122 0.9919977 1.0097984 0.20239407
000330 b1 ad 43 3f 6f 19 33 bf fd 0d f3 bd 90 82 c1 bf
       0.7643691 -0.69960684 -0.118679024 -1.511797
000340 6d 0f 18 3d d6 a2 98 bf 6d 14 cb 3e c4 32 e7 bf
       0.037124086 -1.1924694 0.3966402 -1.8062367
000350 76 2a 12 be cf 39 4a bf a4 b0 a4 bf 10 f6 05 3f
       -0.1427401 -0.7899446 -1.2866406 0.52328587
000360 fd bd 32 40 b2 2f b8 bf 20 32 51 3f 4f 50 df be
       2.792846 -1.4389555 0.8171711 -0.43615958
000370 d4 39 b3 3e 1a 37 43 bf d4 c4 02 bf ce c7 1f 3f
       0.35005057 -0.76255953 -0.51081586 0.6241425
000380 d9 79 42 3f e8 81 27 be b3 07 fe be b6 98 e8 bf
       0.75967175 -0.16358149 -0.4961525 -1.8171604
000390 91 48 db bd 43 a7 7f bf a9 fb 7f bf 79 8e 56 3f
       -0.107072 -0.99864596 -0.9999338 0.83811146
0003a0 95 1a 83 be cf 3e 76 bb eb 7c 0b bf 16 6d 03 3f
       -0.25606218 -0.0037574058 -0.54487485 0.51338327
0003b0 c0 30 af 3f a2 63 7d be 23 77 c9 bf 44 63 c7 3e
       1.3686752 -0.24745038 -1.5739483 0.3894292
0003c0 a9 27 00 40 94 cf 55 bf a8 0c 1d 40 ef 4e 05 3f
       2.0024207 -0.83519864 2.4538975 0.5207357
0003d0 49 63 83 3f 3e c6 88 bf ac 02 52 3e 1a 16 97 3e
       1.0264674 -1.0685499 0.20508832 0.2950905
0003e0 a7 b3 80 bf 7b 87 2d be 68 b0 42 bf 6e e9 8b 3d
       -1.0054826 -0.16946213 -0.76050425 0.068316326
0003f0 cf 45 7d 3f e3 54 b7 3f d2 81 ce bf fe 9d 3d 3f
       0.98934644 1.432278 -1.6133368 0.740692

weight f4 [84, 784]
000000 81 83 6d bb 4a df 54 bc f7 2f 04 bd f7 5e c5 3b
       -0.0036241713 -0.012992689 -0.032272305 0.0060232836
000010 7e 81 09 bd 91 d7 f4 3c c1 57 d7 bb 9c 61 0f 3c
       -0.03357076 0.029887946 -0.0065717404 0.008751299
000020 57 dc 80 3c d7 c0 ce 3c a5 a2 f7 bc 77 67 0e 3d
       0.015730066 0.025238438 -0.030228922 0.03476664
000030 01 fc bb bc df fc 80 3b 93 5e 24 3d 6e 82 53 3d
       -0.022947313 0.0039363946 0.040129256 0.05163806
000040 8e cb 0e bc 60 79 0a bd 5c 1c f7 3b 33 2f b5 bc
       -0.008715523 -0.03380716 0.0075412225 -0.022117233
000050 85 a5 bf bc 61 b3 b3 3c 25 69 d1 3b 65 66 f7 bc
       -0.023394356 0.02193612 0.006390708 -0.030200193
000060 ae 3a f8 bb 25 42 d2 ba 87 6b 94 bc 93 40 b5 3b
       -0.0075753545 -0.0016041441 -0.01811768 0.0055313795
000070 a5 8b d0 bc 88 9c fe 3c dc e4 6c 3c ec 22 da 3c
       -0.025457213 0.0310805 0.014458861 0.02662798
000080 d2 6e 86 bd 3a 9e 02 bc ab 71 81 3d 45 ed 06 3d
       -0.06564106 -0.007972294 0.063205086 0.03294112
000090 94 a6 df bc ac a6 39 be 98 be 7b be 16 a5 3c 3d
       -0.02730111 -0.18129987 -0.24584424 0.046055876
0000a0 87 f5 c2 3c 14 ee 19 3d d3 e7 9c 3c 67 9b 74 3e
       0.023798717 0.037580565 0.019153511 0.23887406
0000b0 89 cf 5f 3e ef 87 ff 3c bd 36 ce bd ab 94 aa bd
       0.21856512 0.031192748 -0.10069034 -0.083291374
0000c0 c0 aa 53 be 70 7e 92 bd 6d c7 0c be 12 77 a5 bd
       -0.20670605 -0.07153022 -0.1374795 -0.080793515
0000d0 98 b2 ed bc 5c 73 87 bc ac bd c8 bc be 7d f1 bc
       -0.029015824 -0.0165345 -0.024504505 -0.029478904
0000e0 6e e0 4c 3b 93 03 aa 3b 80 71 67 3c 9f e3 96 be
       0.00312617 0.0051884144 0.014126182 -0.29470536
0000f0 33 0e b8 be 47 1a 94 be d9 30 1b be 7f ad 53 be
       -0.35948333 -0.28926298 -0.15155353 -0.20671652
000100 48 ac 7d be 7a c2 f0 bd 01 7c e3 bd c6 38 60 be
       -0.24772751 -0.117558435 -0.11107636 -0.21896657
000110 d4 48 1c be 7c 90 88 bc 28 e3 6b be 42 16 ad bd
       -0.15262157 -0.016670458 -0.23035872 -0.08451511
000120 93 78 af bd 60 74 8a 3d 0b 1c 1b 3e 1f 55 72 bd
       -0.085679196 0.06760478 0.15147416 -0.05916321
000130 ed 41 d2 3d 5c 68 48 bc 0d e0 11 be 64 07 9a 3d
       0.102664806 -0.012231912 -0.14245625 0.07520941
000140 66 4d 72 bd 06 e9 5e bc b3 fe 6d bc 4a 5a 54 3a
       -0.059155844 -0.013605362 -0.014526057 0.00081006123
000150 aa a9 52 bc 55 12 9b bc 00 80 02 3e 51 ac 24 be
       -0.012857834 -0.01892964 0.1274414 -0.16081358
000160 a8 01 c8 bd da 89 65 be 13 14 69 bd fa 6a 92 bd
       -0.09765941 -0.22415867 -0.05690391 -0.071493104
000170 86 1c bc bd 57 02 57 be e8 75 70 be a9 0f 8c be
       -0.09185128 -0.20996986 -0.23482478 -0.27355698
000180 de a0 0b bb 1a 62 a4 3d d5 6f 60 3d f0 2d 9d 3d
       -0.00213056 0.08026524 0.05479415 0.076747775
000190 65 23 78 bd 2e d8 fd 3b 40 a6 e3 bc f7 a6 a4 bd
       -0.06058063 0.007746718 -0.027789235 -0.080396585
0001a0 df 34 b8 bd d9 5d 8b bc b8 3c b4 3d 54 56 96 3c
       -0.08994459 -0.017012523 0.08800644 0.018351711
0001b0 7c 42 d5 bd 4f 6e 16 3e cf 36 3d bd a5 44 11 3d
       -0.104130715 0.14690517 -0.046194848 0.035465855
0001c0 65 1e 40 bc 2b af 43 bc 22 07 0f 3e 74 f6 42 bd
       -0.011725997 -0.011943619 0.13967565 -0.047598317
0001d0 24 31 2d be e7 cc 7b be 46 1a 66 be 2a c2 22 be
       -0.16913277 -0.24589883 -0.2247096 -0.1589438
0001e0 f5 ee 64 be 0f ba 19 be b6 61 9c bd 5a 7f b3 3d
       -0.2235678 -0.15012382 -0.076358244 0.08764525
0001f0 a3 fd 1c bd ed 44 bb 3c 0d a2 5f 3d 89 6f 52 bd
       -0.038327824 0.022860015 0.054597903 -0.0513759
000200 53 11 6a bd 68 92 8a 3d c7 ad b5 bd 6b 7f 10 be
       -0.057145428 0.06766206 -0.08871036 -0.14111106
000210 9d 95 16 bd 06 71 07 be ae 36 bc 3d 3b 8c 31 3e
       -0.036763776 -0.13226709 0.09190117 0.1733865
000220 98 39 b8 3d e5 21 41 3e 4e cc 0c bc 70 47 fd bd
       0.0899536 0.18860586 -0.008593632 -0.12367141
000230 1c b7 7b 3c 81 c5 dd 3b 56 4d 57 3e 66 ed ae 3d
       0.015363481 0.006767929 0.21025595 0.08541374
000240 a9 02 2f be 69 a3 11 be 4e 2e fe bd b2 b5 27 be
       -0.17090859 -0.14222492 -0.12411176 -0.16377905
000250 4e cd 6d be 3d 02 03 be e9 8d 6f 3b 52 33 08 3e
       -0.23222849 -0.12793823 0.003655309 0.13300827
000260 60 a1 df 3b 25 7b 46 3e 45 96 5a 3d 77 dc 96 bc
       0.0068246573 0.19382913 0.053365964 -0.018415673
000270 68 98 a7 bb 9f 4c 8d bc 67 04 3c be 8c 04 89 bd
       -0.005114604 -0.01724845 -0.18361054 -0.066903204
000280 ee e6 08 3e a5 8c 9e bd c5 44 1e bd 3c fd 80 be
       0.13369343 -0.077416696 -0.038639802 -0.25193202
000290 41 7f 8d be 92 62 9a bd ab 0f 91 3c 43 93 0e be
       -0.2763615 -0.07538332 0.017707666 -0.13923363
0002a0 87 ce b3 bc 85 89 87 bd f8 dc bc bd 4a 88 34 be
       -0.021949066 -0.06618027 -0.09221834 -0.17630115
0002b0 13 d0 39 be a9 cc 24 be 33 0b a9 bc fe 55 ee bb
       -0.1814578 -0.16093697 -0.020635223 -0.0072734347
0002c0 ed 39 0a 3b 9c de ab bd d3 29 18 3e 86 19 17 3e
       0.0021091655 -0.08392069 0.14859705 0.1475583
0002d0 98 ed 1d 3e d0 d7 57 3e c7 cf 01 3e e2 0e 00 3e
       0.15422666 0.2107842 0.12676917 0.12505677
0002e0 e5 fa 8b 3d ca 6f 73 3d 31 bc d2 3d 75 47 c3 3d
       0.06834964 0.059432782 0.10289801 0.09535114
0002f0 4e e4 6d 3e ad 96 62 3d f8 ae 9a bd f1 1f eb bd
       0.23231623 0.055319477 -0.07552904 -0.11480702
000300 55 12 96 be 3a 85 5d be f4 8e 14 be 41 9c 02 be
       -0.2931086 -0.21632853 -0.14507657 -0.12754919
000310 29 66 b3 bc 41 47 86 be af ad 64 be 8f 74 22 be
       -0.0218993 -0.26226237 -0.2233188 -0.15864776
000320 ef 91 34 bd b3 9b 13 be 90 73 7d bd 34 ac e6 bd
       -0.044084486 -0.14414863 -0.061877787 -0.11263314
000330 69 b1 09 3d 92 59 ff bc 87 a5 11 3e 40 c0 1e 3d
       0.033616457 -0.03117064 0.142233 0.038757563
000340 75 7c 81 3d 9e af 6d 3d 81 b1 48 3d 14 88 ea 3d
       0.063225664 0.05802881 0.048997406 0.11451736
000350 ba 7f f5 3d 11 64 df 3c 48 66 be 3b e5 82 10 3e
       0.119872525 0.027269395 0.0058105327 0.14112432
000360 e2 94 93 3e ae 4d 6b 3e fb 88 15 3d 73 be 39 bd
       0.28824526 0.22978851 0.036507588 -0.045347642
000370 16 e2 7a be c7 76 08 be 85 f9 56 be 9c 14 01 be
       -0.24500307 -0.1332656 -0.20993622 -0.12605518
000380 a7 74 37 3e 6c 2b 94 be 27 fe 6d bc 5d 07 3a be
       0.17915593 -0.28939378 -0.014525927 -0.18166871
000390 51 ff 98 be e6 76 52 be 26 26 37 bd 66 68 9a bd
       -0.2988229 -0.20553169 -0.044714116 -0.07539444
0003a0 0f 12 ce 39 2a 08 8a bd fc 7c 37 3d 45 5d 0f 3e
       0.00039304837 -0.067398384 0.04479693 0.14000423
0003b0 bc 72 50 3e 4f 10 3a 3e 90 39 ba 3d 35 c8 77 3d
       0.20356268 0.18170284 0.090930104 0.060493667
0003c0 6f ab c7 3d 83 a2 6a 3d 8c c9 36 3e 33 93 eb 3d
       0.09749495 0.05728389 0.17850322 0.115026854
0003d0 d9 9f 20 3e d5 d9 55 3e ef 52 0b 3e 64 01 c7 bc
       0.15685977 0.20883878 0.13605855 -0.024292655
0003e0 4f c3 41 3d 41 8e 3e be 3e fe 28 be ef cb 5d 3e
       0.0473054 -0.18608953 -0.16503236 0.21659826
0003f0 17 f5 0a bd 99 2f ac be 8f 21 d4 be f4 65 e7 3d
       -0.033925142 -0.33630064 -0.41431853 0.11298743

bias f4 [84]
000000 04 5f 6f bb 5b 04 bc 3a b1 1d 82 3d 03 bf 00 bc
       -0.003652514 0.001434456 0.063533194 -0.007858041
000010 83 db 68 3d 85 e9 9b 3d 60 f9 29 be 09 d2 ef bc
       0.056849968 0.076129 -0.16599035 -0.029274957
000020 99 2e 24 3d 87 a5 ff bd 99 05 7d 3d 68 c5 ab bd
       0.0400835 -0.12482744 0.061772916 -0.08387262
000030 e1 02 f5 bd 14 e0 cb bd 3a 41 4e bb 75 8e cc bc
       -0.1196344 -0.09954849 -0.0031471984 -0.024970273
000040 05 d8 69 3c c5 8b d4 bd 42 ec 37 bd 5b 12 74 bc
       0.0142726945 -0.103782214 -0.044903047 -0.014896954
000050 59 1a bc bd 60 2e b2 bd 5f 88 6e 3d 24 48 52 be
       -0.09184713 -0.087002516 0.058235522 -0.20535332
000060 0e 12 18 3e ee 10 ab 3c 6d 08 ef bd 7c d7 81 3d
       0.14850637 0.020882096 -0.11671529 0.063399285
000070 81 79 3a be 19 d4 16 bd 86 c2 01 bd 74 50 28 be
       -0.18210413 -0.036823366 -0.031679653 -0.1643694
000080 a2 40 55 3c 19 2a 82 bd ec 04 27 3d 91 49 81 3d
       0.013015898 -0.06355686 0.04077618 0.0631286
000090 2d 31 96 bd bb 17 b9 bd ee 7a 50 3e bc 20 eb bc
       -0.07333598 -0.09037729 0.20359394 -0.028702132
0000a0 cc 01 63 3b 67 b5 f6 bd 98 2d 89 3d 37 4a 0d bd
       0.0034638522 -0.120463185 0.066981494 -0.034494605
0000b0 66 c7 3b 3d f2 4d 98 bb 07 65 37 be dc ce 2c 3d
       0.045844458 -0.0046479637 -0.17909633 0.042189464
0000c0 30 30 db bc bc 8d a9 3d 03 29 d6 3c 6c 46 41 bd
       -0.026756376 0.08278987 0.026142603 -0.0471863
0000d0 54 fa 05 be 64 04 8e bd e6 39 8f 3d 9c c7 e3 bd
       -0.13083774 -0.06934431 0.06993465 -0.11122057
0000e0 e8 5f 20 bc 1d 7d 14 3e fd 8f 2f 3d 80 73 af bd
       -0.009788491 0.14500852 0.042861927 -0.08566952
0000f0 96 a9 a6 bc 64 8a 4a bd 62 b1 00 bd 13 15 13 be
       -0.020344537 -0.049448386 -0.031419165 -0.14363508
000100 ed 0e 07 3e f4 d1 b5 bd f8 3d d1 3b 7b 5e 15 3e
       0.13189287 -0.08877936 0.006385561 0.14586823
000110 9d fc 60 3c 8d 36 43 3d bb 39 2f 3d 10 89 dc 3c
       0.013732103 0.047659446 0.042779665 0.026920825
000120 73 4e b0 3d 71 47 e2 bc 60 25 56 bd 8f 58 1d 3d
       0.08608713 -0.027621957 -0.052281737 0.038414534
000130 26 04 c7 bd 9d cc 6d 3d 16 da 3b 3d 8a ff 44 be
       -0.09717588 0.058056463 0.04586228 -0.19238105
000140 c6 fd e2 3b ea 79 86 bc fd 82 b9 bd ae 5a 15 3d
       0.006927225 -0.016415555 -0.09058187 0.036463432

bias f4 [84]
000000 4a 11 96 3e 42 30 12 bd 84 c2 9a bd 1d 4c 08 3e
       0.29310066 -0.035690553 -0.07556632 0.13310285
000010 1a 6e 00 3e 80 55 e4 bd ee cb 97 3d 0e 2a b5 3d
       0.12542 -0.1114912 0.074119434 0.08845912
000020 08 20 c9 bb ca 19 bf 3c d1 0f 6f 3d eb d0 00 3e
       -0.0061378516 0.023327727 0.058364693 0.12579696
000030 aa 75 84 3c 61 6c 55 3d 7a b4 94 3d ef 88 61 be
       0.016169388 0.05210531 0.07260986 -0.22024892
000040 7e a9 ae bc ee a0 2b bd e9 b5 04 3e 17 d7 27 3d
       -0.021321055 -0.04190152 0.12960018 0.04097661
000050 31 95 1e 3d 52 b7 47 be ef 70 53 bd 0f 08 29 3e
       0.0387165 -0.19503525 -0.051621374 0.1650698
000060 cb 8f 09 be ce ee 74 bd 85 ce 0c 3d d8 eb 87 3d
       -0.13433759 -0.059798054 0.03437664 0.066367805
000070 42 07 c6 3d 97 69 01 3e 46 65 52 bd 1e 5c 94 bd
       0.09669353 0.12637936 -0.051366113 -0.072441325
000080 59 56 27 bb 12 1b 8a 3d d5 26 ac bd 18 bb 9b 3c
       -0.0025533645 0.067434445 -0.08405844 0.019010112
000090 ac 55 21 be 58 c5 c9 bb b5 a8 2a be 54 db 56 3d
       -0.15755337 -0.0061575584 -0.16665919 0.05245526
0000a0 11 0f 0d 3c df 58 2b be fa 73 95 3d a3 a0 9a bd
       0.008609549 -0.1673312 0.072975114 -0.0755017
0000b0 6f 00 ee bd a6 d0 f4 3d 99 f8 e7 bc 08 06 85 3e
       -0.116211765 0.11953859 -0.028316783 0.25981164
0000c0 3d 0d 1a 3e 65 dc 54 bd b8 8a 23 3e 9f 38 83 3e
       0.15044113 -0.051967997 0.15970886 0.25629136
0000d0 e2 ab 29 bd fd 47 2f be 4d 42 ad bd 0a 92 b8 bd
       -0.041423686 -0.17117305 -0.084599115 -0.0901223
0000e0 31 34 4a 3d 7d 9d cf 3d 54 10 2b be 3f a9 48 3d
       0.04936618 0.101374604 -0.16705447 0.04898953
0000f0 d0 09 70 3e bf 46 15 be 2e 2e 59 be 22 5b 91 3d
       0.23441243 -0.14577769 -0.21209022 0.0709746
000100 d5 4a 02 be 33 c8 b7 bd 44 b6 66 bd 0a 82 08 3e
       -0.12723859 -0.08973732 -0.056326166 0.13330856
000110 61 4b 90 3d fe 43 8b bc 07 2d 6a bd ec 8d 12 bc
       0.070456274 -0.017000195 -0.057171848 -0.00894497
000120 0b 68 76 3d 10 ca 95 3e da 70 11 be 1f c5 04 3e
       0.060157817 0.29255724 -0.14203206 0.1296582
000130 47 98 74 3e c5 34 84 3e 05 c3 46 3c 38 82 57 3d
       0.23886214 0.2582151 0.012131457 0.05261442
000140 07 be 0c 3e 35 ab 02 bd b4 02 d2 3c cc 0b 83 3c
       0.13744365 -0.031901557 0.025636055 0.015996836

bias f4 [84]
000000 a2 d8 98 be d9 c0 04 3e 29 89 76 3d 45 e2 4d be
       -0.29852778 0.1296419 0.0601894 -0.20105846
000010 00 db 52 be c1 29 6f 3e d1 be 57 3d 40 a8 73 bf
       -0.20591354 0.23355772 0.05267221 -0.95178604
000020 ab 17 36 3d 22 62 a7 bd fa 4f 0c be 6a 90 4a 3e
       0.044456165 -0.08173014 -0.13702384 0.19781652
000030 8a 9c 20 3e 7e 15 dd bd 2e a3 48 be 84 be b4 3d
       0.15684715 -0.10795115 -0.19593498 0.088254005
000040 c7 07 6f be 99 b6 04 3e 9c 26 c2 3d 33 fb b1 bd
       -0.2334281 0.1296028 0.094800204 -0.086904906
000050 9e a9 e4 be 86 2b d9 bd a0 57 6b bd 10 bd e0 bd
       -0.44660658 -0.106040046 -0.057456613 -0.10973561
000060 56 a9 56 bd 4f 85 09 3d 53 a5 8b bd 74 3d ee bd
       -0.052407585 0.0335744 -0.068186425 -0.11632815
000070 e7 f1 9e bc fa 7f 0a 3e 88 4b 7e bd 2c 0f a3 be
       -0.019402457 0.13525382 -0.06208375 -0.31847513
000080 9b 45 3d bc 38 22 3e bd 58 26 94 3e c3 99 f6 bd
       -0.01155224 -0.046419352 0.28935504 -0.120410465
000090 11 c9 76 3e a9 03 67 be 82 fa bc be c4 c5 01 bf
       0.24100138 -0.2255999 -0.36909872 -0.5069239
0000a0 c0 b9 4b be 96 fa c6 bd 53 24 87 be fb 55 a8 be
       -0.19895077 -0.09715764 -0.263949 -0.32878098
0000b0 94 c8 48 be ec fb 41 be 96 d7 57 3e dd da 0f be
       -0.19607764 -0.18943757 0.21078333 -0.14048333
0000c0 9e 86 5c be 94 50 90 3e 76 57 c5 bc 65 7d 29 be
       -0.21535727 0.28186476 -0.024089556 -0.1655174
0000d0 61 2b ac 3c 48 0a b0 3e 54 42 49 be 06 d5 c0 bd
       0.021016778 0.34382844 -0.19654208 -0.09415631
0000e0 9d 6d 22 bf 1b 1a 96 bc a0 d6 26 3e 9d dd 37 be
       -0.63448507 -0.018322995 0.1629281 -0.17955633
0000f0 eb 36 78 3e 7d 29 e4 3b 90 6b 29 3c 5b 1d 1f bd
       0.242397 0.0069629536 0.010340586 -0.038846355
000100 a7 89 06 be c9 2c 18 3e 74 56 72 bd db 8f 35 3e
       -0.13138448 0.14860834 -0.05916448 0.17730658
000110 35 26 14 be 4d e6 bc be 20 e3 3e 3d 06 21 87 bd
       -0.144677 -0.36894456 0.046603322 -0.065980956
000120 8f 43 c9 3d 6f a2 44 3f 55 16 5b 3e 56 af 94 3e
       0.09827339 0.76810354 0.21395238 0.2904002
000130 bb 03 81 be 08 58 ff be eb c1 cd bd f4 9c 30 bb
       -0.2519816 -0.4987185 -0.100467525 -0.002694902
000140 b5 60 03 be d6 2c 62 3d 5b f6 59 bf 34 0f 28 bd
       -0.1282986 0.05521854 -0.85141534 -0.041030124

bias f4 [84]
000000 ba 87 55 3e 24 d9 16 be 60 c6 2e 3e 26 5d 51 be
       0.20852557 -0.1473127 0.17067862 -0.2044569
000010 72 2e 67 3e 36 02 45 be 18 73 8f be 52 7b 2a 3e
       0.22576311 -0.19239125 -0.28017497 0.16648605
000020 b6 90 8d 3e ca 58 5f 3e 96 0f 0a 3e 72 b3 50 3e
       0.27649468 0.21811214 0.13482508 0.20380953
000030 08 53 56 be 1a 91 0c bf 5d 07 5c be d3 6d 32 3e
       -0.20930111 -0.5490891 -0.21487184 0.17424707
000040 f9 4d d3 3d 9a 98 49 be 08 d9 8a be bb 15 e6 3e
       0.103176065 -0.19687119 -0.27118707 0.44938454
000050 21 06 0a 3f d7 25 e6 3e 21 ab fa 3e 4c f9 ed 3d
       0.539156 0.44950745 0.48958686 0.11619815
000060 b4 99 db 3e 25 ed 8a 3d 10 5b 77 bc f7 4a f5 3d
       0.42890704 0.06783513 -0.015097395 0.11977189
000070 c0 02 2b bf 45 5d 85 be 50 61 d7 3e 0c c5 b1 3e
       -0.6680107 -0.26047722 0.4206643 0.34720647
000080 19 57 3c be b5 e1 e9 3e 88 dd 01 bd 6f 61 a2 3d
       -0.183926 0.45680013 -0.03170541 0.0792874
000090 cf 20 1d 3e ba 6e 40 3e 5a ab a9 be 90 9c d1 3e
       0.15344547 0.18792239 -0.33138543 0.4093976
0000a0 ef 2a c5 3d f9 3f 67 3d ce 1c df be 0f cd 30 3f
       0.096273296 0.056457493 -0.43576664 0.69062895
0000b0 3d f8 18 3e 5b 7c d3 be a9 dc 16 be 87 8f 47 be
       0.14938445 -0.41305813 -0.14732613 -0.19488345
0000c0 62 4f 4f 3e 0f f0 b2 be 8e ac a1 bc 34 ca 80 bd
       0.20245126 -0.34948775 -0.0197356 -0.06288567
0000d0 7f 1c 85 3d 3f 9a 89 bd 71 f8 00 3f d3 51 08 3f
       0.06499576 -0.06718873 0.5037909 0.53249854
0000e0 b4 5a 1a 3e 8b 16 95 3e fe c2 2d be a9 52 b0 3d
       0.15073663 0.2911876 -0.16968915 0.08609516
0000f0 94 74 31 3e 27 cd 10 3d 6b 08 b5 3e e7 9a 86 bd
       0.17329627 0.0353519 0.35357985 -0.06572514
000100 4b 17 18 3f 43 bf 4b 3e b8 c0 cc bc b2 25 a4 be
       0.5941054 0.1989718 -0.02499424 -0.3206001
000110 28 32 a3 be ce 92 23 3d cd fa c3 3d b1 d9 59 3e
       -0.31874204 0.039934926 0.09569321 0.21274449
000120 de c3 1e bf 12 c8 51 bf 50 0e 3b 3e 2f 31 0b 3d
       -0.6201762 -0.8194591 0.18267179 0.033982452
000130 2a af 29 be b1 30 23 3f 2b 95 50 be c3 82 b8 be
       -0.16570726 0.6374617 -0.20369403 -0.36037263
000140 18 69 53 3e 3f 18 b3 be f6 27 5e 3e 75 d2 e9 3e
       0.20645559 -0.34979436 0.21694931 0.45668378

weight f4 [10, 84]
000000 8b a2 87 bf 99 a7 0e 3a 10 0f 59 3f 29 55 94 3e
       -1.0596479 0.0005441844 0.8478861 0.28971222
000010 ef 80 f2 3e 18 5e f4 3e a7 13 10 3f 8b 2f 39 bf
       0.47363994 0.47728038 0.5627999 -0.7233817
000020 d3 e3 4d 3f 63 fb 35 bf 54 b3 1c bf fb 35 11 3f
       0.8042576 -0.7108671 -0.61211133 0.5672299
000030 49 30 cd be e9 43 cd be cf 7e 96 be cc 8a ad 3e
       -0.400759 -0.40090874 -0.29393622 0.33894956
000040 33 16 98 bf 77 44 f4 be 38 da 1d 3f 39 1d 09 3f
       -1.1881775 -0.47708485 0.616611 0.53560215
000050 a4 49 30 bf 20 a6 95 3c 49 8b b9 be 37 14 09 3f
       -0.68862367 0.018267691 -0.3623908 0.5354647
000060 56 18 e2 be 0e 9a f6 3e c1 c8 0a bf df 37 be 3e
       -0.44159192 0.4816441 -0.54212576 0.37152
000070 0b df 2f bf 54 98 b6 3e d9 04 af bf de 60 29 bf
       -0.6869971 0.35663092 -1.3673354 -0.6616343
000080 15 c6 08 3e e0 d9 08 3f 6f 2b 22 be 25 86 de 3e
       0.13356812 0.5345745 -0.15836881 0.4346172
000090 6c 54 2e bf da c9 13 bf f4 96 02 3e d5 93 13 bf
       -0.6809757 -0.57729876 0.12752897 -0.5764745
0000a0 94 e0 57 3e 2e ab 46 bf 03 23 53 3e fa 70 87 3e
       0.21081764 -0.7760495 0.20618825 0.26453382
0000b0 a1 d1 db 3e 6a 6b a3 bb fd 5c 85 bd 41 b3 a5 3c
       0.42933372 -0.00498717 -0.06511877 0.020227076
0000c0 d6 0a 72 bf 48 bf 5a be bf 86 e5 3e 07 05 99 3e
       -0.94547784 -0.2136203 0.44829366 0.29886648
0000d0 36 e4 36 3e f5 a8 af be e1 26 e1 3d 7e 59 86 bf
       0.17860493 -0.3430859 0.10993744 -1.0496061
0000e0 75 6e 2b bf 11 3f b4 3e e3 6e 74 bf ab 74 65 bf
       -0.6696542 0.35204366 -0.954817 -0.89631146
0000f0 bc 5a 34 3f d7 75 06 bf a0 bb 11 3f 31 f1 42 3e
       0.7045095 -0.5252356 0.5692692 0.1903732
000100 e6 a9 62 bf a8 9b e7 be 1b a3 dc be 23 48 c3 be
       -0.88540494 -0.45235944 -0.4309319 -0.38140973
000110 e7 0a 10 bf 42 3e 8a bf 24 ba 0a 3f 7f e4 de 3e
       -0.56266636 -1.080025 0.5419028 0.43533704
000120 b1 a2 3c be ff 77 d7 bc 4e 76 e4 3e b3 61 8c be
       -0.18421437 -0.026302336 0.4462151 -0.2741829
000130 83 14 36 bf f0 6e c1 bf 16 cd 10 bf 4f 62 d1 3e
       -0.7112505 -1.511198 -0.56562936 0.40895316
000140 63 5e 5c be 13 24 de 3e 2b c2 56 3e dd 28 9b 3e
       -0.2152038 0.43386897 0.20972507 0.30304614
000150 9c ea cd be 85 95 53 bf cc 07 02 3f f1 8c aa 3e
       -0.40218055 -0.82650024 0.5079315 0.33310655
000160 5e 18 11 bf cc e9 91 be 69 50 18 bf 01 6d bc bf
       -0.56677806 -0.28498685 -0.59497696 -1.4720765
000170 b8 d1 c3 bd 7d 16 e3 3e 23 a1 d3 be cc 80 24 bf
       -0.09561485 0.44353095 -0.41333875 -0.6425903
000180 f4 ff 0d 3f 34 b6 7e 3e e3 a3 28 3f ec d8 25 bf
       0.5546868 0.24874192 0.6587507 -0.6478412
000190 48 46 5c 3e 26 d3 02 3f e6 89 08 bf e6 99 c1 be
       0.21511185 0.51103437 -0.53335416 -0.37812728
0001a0 f1 8c 05 3d ee 9b ce bc 85 16 23 3f 86 59 97 bf
       0.032605115 -0.025220837 0.6370624 -1.1824195
0001b0 fb 8d 8c 3e 3f cd f7 3e 9f 3a cf 3e 7d 9f 59 3f
       0.27452073 0.48398778 0.40474412 0.85008985
0001c0 fd a4 90 3d f9 c6 d8 be 63 4b cd 3d f8 c0 84 bf
       0.07062719 -0.42339304 0.100241445 -1.0371389
0001d0 be 68 a7 bd ba c8 75 bf a6 5e 1f 3e 96 89 ee be
       -0.08174275 -0.9600941 0.1556345 -0.46589345
0001e0 b0 a0 aa be 35 2a 07 bf 6d f9 72 3e b9 a6 06 3f
       -0.3332572 -0.5279878 0.23727961 0.5259815
0001f0 f3 e2 d0 be 83 cd 41 bf eb 9c ed 3e d4 42 c6 3d
       -0.4079815 -0.7570421 0.4640878 0.09680715
000200 6e 6d 0d 3f ed ed 96 3e 0f bb 14 3f 81 91 dc 3e
       0.552451 0.29478398 0.5809793 0.4307976
000210 a0 26 24 3f c7 98 7b 3e 2b 94 de 3e b4 34 eb be
       0.6412144 0.24569999 0.43472418 -0.45938647
000220 c5 45 df be 59 46 8f bf 6b 8c 0f bf 66 17 e0 3e
       -0.43607917 -1.1193343 -0.56073636 0.43767852
000230 94 63 93 bf 80 6b c0 3e f3 76 96 3e f9 df 19 bf
       -1.1514764 0.37582016 0.29387626 -0.6010738
000240 21 27 91 3e 12 e9 14 bf 59 42 fe 3e b9 f8 b7 3e
       0.28350165 -0.5816814 0.49659994 0.35931948
000250 1a 6b 1d bf 56 fa 06 3e 75 f1 56 3e 98 8f 00 3f
       -0.6149155 0.13181433 0.20990546 0.50219107
000260 73 e4 9a 3e 01 3b 95 be 78 10 f3 be 14 19 52 bf
       0.30252418 -0.2914658 -0.47473502 -0.82069516
000270 75 da b2 bd 5b d5 b8 3e c6 05 15 bf 50 d7 33 bf
       -0.087330736 0.36100277 -0.58211935 -0.70250416
000280 38 0f 0e bf b6 e8 c4 3f 9e e2 b0 3e 20 99 38 3e
       -0.5549197 1.5383518 0.34547895 0.18027163
000290 24 b1 c0 3e 8f 3e 15 bf 9f 77 e0 be 01 9d e0 3e
       0.37635148 -0.5829858 -0.43841264 0.43869784
0002a0 f6 35 2b 3f aa e6 e5 3d e7 a3 65 bf 9f cb dd 3c
       0.6687921 0.11225636 -0.8970322 0.027074633
0002b0 23 c4 20 bf 46 ae 25 3f 5f 60 c0 be 2c af ef be
       -0.6279928 0.64719045 -0.37573525 -0.46813333
0002c0 ce a9 46 be 56 cf 74 3e 6e 4e 4a 3f fc 0f 8d bf
       -0.19400713 0.23907217 0.79025924 -1.1020503
0002d0 35 4a bc be 8e c2 11 3f c3 42 3a bd 7b bf 58 bf
       -0.36775365 0.5693749 -0.045473825 -0.84667176
0002e0 aa 67 08 bf 1b e4 ca 3e 8b 00 04 3f 45 f7 dc 3e
       -0.5328318 0.39627156 0.5156333 0.43157402
0002f0 ea 2c 74 bf 56 63 83 3e ca 9a 5f 3c aa d5 2e 3f
       -0.95381033 0.25661725 0.013647744 0.68294775
000300 30 bf 8c 3e 91 27 c1 be ec 1d 97 3e 34 c5 44 3a
       0.27489614 -0.377255 0.29515016 0.0007506192
000310 3a dd 14 bd bc 44 1e 3f 8a 60 8e bf 00 fc 01 3f
       -0.03634379 0.6182363 -1.1123211 0.50775146
000320 16 57 60 be ba 03 65 3d a9 e5 31 bf 98 cb 14 bf
       -0.2190822 0.055911757 -0.6949106 -0.5812316
000330 15 c3 8c 3e f9 cb 0b 3e f1 96 a8 be 4c ed 92 bf
       0.27492586 0.13652028 -0.3292766 -1.1478667
000340 75 c1 01 3f b3 3e 7b 3e 76 9e 55 3e dc 09 1d bf
       0.50685817 0.24535637 0.2086123 -0.6134317
000350 70 f0 28 3e 13 ff b9 bc b8 aa 52 bf 3f 63 dd bd
       0.1649797 -0.022704637 -0.82291746 -0.10809945
000360 24 cc 31 bf 91 5b 18 3e 9d 6a d8 bd 17 1d fe 3e
       -0.6945212 0.1487868 -0.1056721 0.4963157
000370 58 01 ea 3e 81 7a d7 3e a2 f8 70 3f e9 1f e2 3e
       0.4570415 0.4208565 0.94129384 0.4416497
000380 f3 a3 5e bf 1f f9 e6 3d 3f 20 29 bf 4e aa 01 3f
       -0.86968917 0.11277985 -0.6606483 0.5065049
000390 93 5c 9b bf 09 6b 62 3e c6 bb e0 3c 81 95 dc 3d
       -1.2137626 0.22111143 0.027433287 0.10770703
0003a0 57 ad 33 3f d4 2c ef 3e 2c 79 d8 be 92 64 fa 3e
       0.7018637 0.4671389 -0.42279947 0.48904854
0003b0 78 24 47 bf 42 bf 91 3e 6f d0 d0 3e 5a 1d 4a bf
       -0.7779002 0.2846623 0.40784022 -0.78951037
0003c0 d1 a6 d9 3e dd 76 5a bf 91 5a 0d bf e5 88 36 be
       0.42510083 -0.8533762 -0.5521632 -0.17825659
0003d0 32 65 8a bf 46 a2 b0 3f b1 43 9f 3e aa b9 d5 be
       -1.0812132 1.3799522 0.31106332 -0.41743213
0003e0 d4 e8 45 bf 5d c7 85 bf 37 87 95 bf de 10 91 3d
       -0.7730839 -1.0451466 -1.1681889 0.07083295
0003f0 56 67 3a 3f cb 66 9f 3e 87 be 46 bf 8b 89 7f 3d
       0.7281393 0.31133112 -0.7763447 0.06238703

bias f4 [10]
000000 89 d6 c2 3c 31 5e 1f 3e a8 05 93 bd 32 18 84 bd
       0.023783939 0.15563275 -0.07178813 -0.064499274
000010 a8 11 cf bd 56 1b 32 3e d6 52 6f bd de 48 a0 bd
       -0.101107895 0.1739324 -0.058428608 -0.07826398
000020 48 34 96 bd 5a a7 93 3d
       -0.073341906 0.07209654
